Shanks.pth (torch, 9992 bytes, 4 tensors)

fc1.weight f4 [8, 224]
0	0x3f05756d	0.521323
1	0xbe8bd57e	-0.2731132
2	0x3f3896ad	0.72104913
3	0xbf215f5c	-0.6303613
4	0x3f8bcdab	1.092214
5	0x3f8147de	1.0100057
6	0x3f06ab42	0.5260507
7	0x3f0cece5	0.5504897
8	0x3e3e0d41	0.18559743
9	0x3e96f512	0.2948385
10	0x3ebc40b3	0.36768112
11	0x3cd5f8e9	0.026119666
12	0xbf005cf3	-0.5014183
13	0xbe89f382	-0.26943594
14	0x3ee5a956	0.44855756
15	0xbf12ff20	-0.5742054
16	0xbd04580e	-0.032310538
17	0xbed29f00	-0.41136932
18	0xbf584782	-0.8448411
19	0xbe8044f5	-0.2505261
20	0xbeabedc7	-0.33579847
21	0xbe9e1c81	-0.30881122
22	0xbf4cf13d	-0.800556
23	0xbe526bb3	-0.20548896
24	0xbf3c7633	-0.7361786
25	0x3f7a55b1	0.97787005
26	0xbf2b271f	-0.6685657
27	0x3f26f6c3	0.6522028
28	0x3f73b6c5	0.9520076
29	0xbeb5249d	-0.35379496
30	0xbf542215	-0.82864505
31	0xbf59927b	-0.84989136
32	0xbe73e408	-0.23817456
33	0xbf5c3e1b	-0.86032265
34	0xbde8df35	-0.11370698
35	0xbf332a42	-0.69986355
36	0x3f41decb	0.7573058
37	0xbf42f6e1	-0.7615796
38	0x3f7fde74	0.9994881
39	0x3f1ade86	0.60495794
40	0xbe99a131	-0.30005792
41	0x3f50dd84	0.81588006
42	0xbe98256f	-0.2971606
43	0xbf6bd526	-0.92122114
44	0xbe0c3cb1	-0.13695027
45	0x3f1e4804	0.6182864
46	0xbed8a97e	-0.42316812
47	0xbf80c3f3	-1.0059799
48	0xbf11603d	-0.5678747
49	0xbda46f9f	-0.080291025
50	0x3ecd7c51	0.40133908
51	0xbf48427a	-0.78226435
52	0x3f0f9141	0.56081015
53	0xbc1d0d96	-0.009585759
54	0x3ef67c36	0.4814164
55	0x3f3666f5	0.7125085
56	0x3f57c3cc	0.8428314
57	0x3e8b463c	0.27202022
58	0x3e514951	0.20438124
59	0xbf0bc0aa	-0.5459086
60	0xbf3fdc04	-0.7494509
61	0xbf0fbad8	-0.56144476
62	0x3f4b15b1	0.79329973
63	0xbe7fae47	-0.24968825
64	0x3e177fc3	0.14794831
65	0xbdf0f0e3	-0.117646955
66	0xbf07b669	-0.5301271
67	0x3f11f46e	0.57013595
68	0xbf3c757c	-0.73616767
69	0xbf0c3426	-0.5476707
70	0x3f22c424	0.63580537
71	0xbd11a267	-0.03555527
72	0x3f1c273d	0.6099737
73	0xbf3fcb5f	-0.74919695
74	0x3d5d3e02	0.054014213
75	0xbec3e476	-0.3826024
76	0xbe0d46d3	-0.13796549
77	0x3f39c1ea	0.72561514
78	0xbf3c8298	-0.7363677
79	0xbeff4217	-0.4985511
80	0xbedcb6ba	-0.4310816
81	0x3f687920	0.9080982
82	0xbf242504	-0.6411898
83	0xbf55c64f	-0.8350572
84	0x3df1a920	0.11799836
85	0x3f64b243	0.89334506
86	0x3f4a5921	0.7904225
87	0x3f6e85a2	0.9317266
88	0x3f74cf31	0.9562865
89	0xbdf6ab42	-0.120443836
90	0x3f66a6fc	0.9009855
91	0x3f3238d1	0.69617945
92	0x3e24c25b	0.16089766
93	0x3eddd7a8	0.43328595
94	0x3ba967a8	0.0051698275
95	0xbec0ec30	-0.37680197
96	0x3edf0db2	0.43565136
97	0xbe9eb32c	-0.30996072
98	0x3f0d679e	0.5523623
99	0xbd8a4936	-0.06752245
100	0xbe2af487	-0.16694842
101	0xbe6305e9	-0.22170223
102	0xbf682fc8	-0.9069791
103	0x3f4bd07e	0.7961501
104	0xbf076b72	-0.52898324
105	0xbd339056	-0.04383882
106	0xbe930874	-0.28717387
107	0x3f269279	0.6506725
108	0xbe8fbb10	-0.28072405
109	0x3e971a2b	0.29512152
110	0x3f92d8af	1.1472377
111	0x3e79b39c	0.24384922
112	0xbed4336c	-0.41445482
113	0xbd577238	-0.052599162
114	0x3f3b09c0	0.7306175
115	0xbef594df	-0.47965142
116	0xbf37a004	-0.7172854
117	0x3f1afd5c	0.60542846
118	0x3f1d2d1c	0.61396956
119	0x3f594ac4	0.8487971
120	0x3cec389c	0.028835587
121	0x3f1a854a	0.6035963
122	0x3f447f25	0.7675651
123	0xbf410cb2	-0.75409997
124	0xbef79177	-0.48353168
125	0xbf387631	-0.72055346
126	0xbf5a6c3d	-0.8532141
127	0xbf15c491	-0.5850306
128	0x3f474178	0.7783427
129	0xbd9e25a8	-0.07722026
130	0xbf5a3746	-0.8524059
131	0x3ec370fe	0.38172144
132	0xbe6303f0	-0.22169471
133	0x3f0ce170	0.5503149
134	0x3f069a7a	0.5257946
135	0xbf3c7dd0	-0.73629475
136	0x3eda080e	0.4258427
137	0xbefe289d	-0.4964036
138	0xbd9bef89	-0.07614047
139	0x3f4936c3	0.78599185
140	0xbf5ca479	-0.86188465
141	0x3f074ef0	0.52854824
142	0xbf1db75a	-0.616079
143	0xbe6943b6	-0.22779736
144	0xbf3cee31	-0.7380095
145	0x3e95a885	0.29230133
146	0xbf4a46c4	-0.7901423
147	0xbeb02a19	-0.34407118
148	0x3ebeda7a	0.3727606
149	0x3ebe64a4	0.37186158
150	0xbe8f9d2b	-0.28049597
151	0x3f3591f6	0.70925844
152	0x3f4db164	0.803488
153	0xbf22f8d0	-0.6366091
154	0xbf6d816e	-0.9277562
155	0x3ecf535e	0.40493292
156	0x3eecfb21	0.46285346
157	0xbe33d96d	-0.1756341
158	0xbe7faad7	-0.24967514
159	0x3f491398	0.7854552
160	0x3f1e9451	0.6194506
161	0xbf6073da	-0.87676775
162	0xbf4dbf06	-0.80369604
163	0x3f11c72d	0.56944543
164	0x3f545309	0.829392
165	0xbecd79bc	-0.40131938
166	0x3ee892fb	0.45424637
167	0x3f70d6f3	0.94077986
168	0xbf39c43d	-0.7256506
169	0xbe743c9a	-0.23851243
170	0x3eeb74ad	0.45987454
171	0xbe39a832	-0.18130568
172	0xbf2a3bde	-0.664976
173	0xbefca45e	-0.49344152
174	0xbebf8e9a	-0.37413484
175	0x3e6cf4c7	0.2314025
176	0x3ebff350	0.3749032
177	0xbe92f81a	-0.2870491
178	0xbf00bf3b	-0.50291795
179	0x3f154ea5	0.5832313
180	0x3f2a3024	0.66479707
181	0xbf058921	-0.5216237
182	0xbf0d2b34	-0.5514405
183	0x3f14559b	0.57943124
184	0xbf30ccf8	-0.6906276
185	0x3f25c3f1	0.6475211
186	0xbec3c72b	-0.3823789
187	0x3e3dff03	0.1855431
188	0x3f084aaa	0.5323893
189	0xbf22a478	-0.6353221
190	0x3def5333	0.11685791
191	0x3f470ddb	0.77755517
192	0x3ed6ebc9	0.41976765
193	0x3e94b44b	0.29043803
194	0x3f1a2480	0.60211945
195	0x3dfab2b2	0.12241115
196	0xbf038575	-0.51375514
197	0x3e29b34a	0.165723
198	0xbe8c5b36	-0.27413338
199	0xbe842c92	-0.25815254
200	0x3f2e20a0	0.6801853
201	0x3e43ddf9	0.19127645
202	0xbeaf26a5	-0.3420917
203	0xbf3b5954	-0.7318318
204	0x3ec02e6c	0.37535417
205	0xbe767089	-0.24066366
206	0x3f39907d	0.72486097
207	0xbf0e11a4	-0.5549567
208	0x3f6b9e4c	0.92038417
209	0x3c80b1a5	0.015709708
210	0x3e1f0e3c	0.15532774
211	0xbec39923	-0.38202772
212	0x3f364f9b	0.7121522
213	0xbe4c2ee7	-0.19939767
214	0x3f18e4a1	0.5972386
215	0xbe17d6c1	-0.14828016
216	0x3f0d34e9	0.5515886
217	0xbe69b3e8	-0.22822535
218	0x3e0dbf71	0.1384256
219	0xbf6e8fe5	-0.93188316
220	0xbf2c874f	-0.67393965
221	0xbee32267	-0.44362184
222	0xbe58004d	-0.21093865
223	0xbe50c6f8	-0.203884
224	0x3f0beafc	0.5465543
225	0x3f29c5f6	0.6631769
226	0xbe023a90	-0.12717652
227	0x3efc12b8	0.4923303
228	0xbf3c1229	-0.7346521
229	0x3f4c3704	0.7977145
230	0x3f61fd9f	0.8827762
231	0xbe264771	-0.1623819
232	0x3f187285	0.5954974
233	0x3ee016cd	0.43767396
234	0x3ef2ce39	0.4742296
235	0xbe021deb	-0.12706725
236	0x3d602194	0.054719523
237	0x3e173752	0.14767197
238	0x3eff624f	0.4987969
239	0x3cf5f28e	0.030022886
240	0x3ee9bb59	0.45650747
241	0x3f297763	0.66197795
242	0x3dd2919c	0.10281679
243	0x3f1cdec7	0.6127743
244	0x3f1156d4	0.56773114
245	0x3f2d49cf	0.6769075
246	0x3f4d3518	0.8015914
247	0xbdf67dcc	-0.120357126
248	0xbee9e3d9	-0.45681646
249	0x3f35ab94	0.7096493
250	0xbeffefdf	-0.49987695
251	0x3ef8795a	0.48530084
252	0x3ef89f13	0.48558864
253	0xbe6fa34f	-0.23402141
254	0xbe62d029	-0.2214972
255	0xbf202007	-0.6254887

fc1.bias f4 [8]
0	0x3f3c7816	0.73620737
1	0x3ee9e81a	0.45684892
2	0x3f00a23d	0.50247556
3	0x3eccc719	0.3999565
4	0x3edd2022	0.43188578
5	0x3f453139	0.7702823
6	0x3f118c45	0.5685466
7	0x3f09ed41	0.53877646

fc2.weight f4 [25, 8]
0	0x3f80e872	1.0070937
1	0x3f7c4982	0.98549664
2	0xbe9ec254	-0.31007636
3	0xbf59e85a	-0.85120165
4	0xbf2fb17c	-0.68630195
5	0xbf245a02	-0.6419984
6	0xbf580140	-0.8437691
7	0x3e12b77a	0.14327803
8	0xbf793ea9	-0.97361237
9	0x3f0c42fd	0.54789716
10	0xbf461eb5	-0.77390605
11	0xbf5be4d9	-0.8589607
12	0x3f3a0994	0.72670865
13	0x3f83f785	1.0309912
14	0xbf6cee9e	-0.925516
15	0xbf29da7f	-0.66349024
16	0x3f66f4f7	0.90217537
17	0x3ef2ea5e	0.47444433
18	0x3f68ce66	0.9093994
19	0xbf22273d	-0.6334112
20	0xbf759ef9	-0.959457
21	0x3d5d93e2	0.05409611
22	0xbf804d06	-1.0023506
23	0xbf88e830	-1.0695858
24	0xbf9476ca	-1.1598752
25	0x3cede97d	0.029042
26	0xbf63e918	-0.8902755
27	0xbf33361f	-0.7000446
28	0x3f4454e0	0.7669201
29	0x3f514f86	0.8176197
30	0x3f6b1ea9	0.9184366
31	0xbf8bc2e0	-1.0918846
32	0xbf883f35	-1.0644289
33	0xbf420555	-0.75789386
34	0xbf45ed93	-0.77315634
35	0x3f8cb775	1.0993487
36	0xbf257864	-0.64636827
37	0xbf127d23	-0.57222193
38	0x3f719c29	0.94378906
39	0x3f7c4df9	0.98556477
40	0xbf73a93b	-0.951801
41	0x3f1cc46c	0.61237216
42	0xbf600ff0	-0.8752432
43	0xbf584452	-0.8447925
44	0x3eb79196	0.3585326
45	0xbee63226	-0.44960135
46	0x3f531c28	0.8246484
47	0x3f399af1	0.72502047
48	0xbf8af512	-1.085604
49	0x3f2903a4	0.6602118
50	0x3f6e3a19	0.930574
51	0x3f3a04ca	0.7266356
52	0xbf64a02a	-0.8930689
53	0xbf642931	-0.89125353
54	0xbf53b20b	-0.82693547
55	0x3f0494fe	0.51789844
56	0x3f49818f	0.78713316
57	0x3f678b17	0.9044661
58	0xbf401740	-0.75035477
59	0x3f4e91fd	0.8069151
60	0xbf3c0088	-0.7343831
61	0xbf46772c	-0.7752559
62	0xbf81f91a	-1.0154145
63	0xbf835678	-1.0260763
64	0xbf891eb7	-1.0712498
65	0x3ece3b07	0.4027941
66	0xbf36bdb1	-0.71383196
67	0x3f6bc87b	0.92102784
68	0x3f392619	0.7232376
69	0xbf460605	-0.77352935
70	0x3f205c75	0.6264108
71	0xbf4ae07f	-0.79248804
72	0x3ca36a5f	0.019948183
73	0x3ec07a7c	0.37593448
74	0x3f3753e6	0.71612394
75	0xbf799ef6	-0.9750818
76	0xbf76bf5b	-0.96385735
77	0xbf4a6a0e	-0.79068077
78	0x3f792194	0.9731686
79	0x3f3aaaa3	0.7291662
80	0xbf879eaa	-1.0595295
81	0xbf51f019	-0.82006985
82	0xbf312d90	-0.6921015
83	0xbf1ad583	-0.60482043
84	0xbf6939f4	-0.91104054
85	0x3fbb6fa9	1.4643451
86	0x3f9abbe3	1.2088588
87	0xbf4f47b7	-0.80968803
88	0x3fb18d66	1.3871276
89	0xbf86b314	-1.05234
90	0xbf6121a4	-0.87941957
91	0xbf75bbfd	-0.9598997
92	0xbf18f25e	-0.5974482
93	0x3fa01ace	1.250818
94	0xbf596395	-0.84917575
95	0xbf73607e	-0.9506911
96	0xbf8e47a9	-1.1115619
97	0xbf800574	-1.0001664
98	0x3f1634a1	0.58674055
99	0xbf66a677	-0.90097755
100	0x3f2de140	0.6792183
101	0x3ec24431	0.3794265
102	0x3f049d44	0.5180247
103	0x3f41ccbe	0.75703037
104	0xbe9445a9	-0.28959396
105	0x3f49d66b	0.788428
106	0xbf336233	-0.70071715
107	0x3f2d2458	0.6763358
108	0xbebd19f8	-0.36933875
109	0xbf208b03	-0.62712115
110	0xbf2ef11f	-0.6833667
111	0x3f8aa1fd	1.0830685
112	0xbe88c892	-0.26715523
113	0xbf50e9fe	-0.81607044
114	0xbef159e2	-0.47138888
115	0xbf506f2c	-0.81419635
116	0x3f9e6cfe	1.2377012
117	0xbf536c71	-0.82587343
118	0x3f936083	1.1513828
119	0xbefdee98	-0.49596095
120	0x3f8daff6	1.1069324
121	0xbf60ad08	-0.87764025
122	0x3df1394f	0.11778509
123	0xbef410d2	-0.47669083
124	0xbf7d3594	-0.9890988
125	0xbf48d22d	-0.784457
126	0xbf4ee9e3	-0.8082563
127	0x3f694758	0.91124487
128	0x3eb253d8	0.34829593
129	0x3f3335ce	0.70003974
130	0xbe6ff8c3	-0.23434739
131	0xbf115b85	-0.5678027
132	0xbf4a118f	-0.7893304
133	0x3f2f3477	0.6843943
134	0x3f5718be	0.8402213
135	0xbf7b9dfd	-0.98287946
136	0xbf99ccf7	-1.2015675
137	0x3fa23948	1.2673731
138	0xbf1ac22c	-0.6045253
139	0xbf2cba08	-0.6747136
140	0x3f2aecf4	0.6676781
141	0xbf7e14f8	-0.99250746
142	0xbf46339d	-0.77422506
143	0xbf00a29e	-0.50248134
144	0x3f7a8480	0.9785843
145	0xbf01e2a3	-0.50736445
146	0xbf49c8d6	-0.78822076
147	0x3e18abe0	0.14909315
148	0xbe5ed8b7	-0.21762358
149	0xbf7cf0aa	-0.98804724
150	0x3fa1aaa9	1.2630206
151	0xbc984f42	-0.01859248
152	0xbfa4e85b	-1.2883409
153	0xbf9058d5	-1.1277109
154	0x3f3ff4f9	0.74983174
155	0x3f57bb15	0.8426984
156	0x3f678d31	0.90449816
157	0x3f2a0941	0.6642037
158	0xbf8d22a0	-1.1026192
159	0xbf6c58e3	-0.9232313
160	0xbf8ba169	-1.0908633
161	0x3f08e11e	0.534685
162	0x3ee6cfaa	0.4508031
163	0xbe646c8b	-0.22307031
164	0xbf38cd99	-0.7218872
165	0x3f674fa3	0.9035589
166	0xbf467f3f	-0.7753791
167	0x3f115e40	0.5678444
168	0x3ec042de	0.37551016
169	0xbf628ccb	-0.88496083
170	0x3fa1fc13	1.2655052
171	0xbf5e6567	-0.8687348
172	0xbe2843ac	-0.16432065
173	0xbf4f2921	-0.8092213
174	0xbf4633f0	-0.77423
175	0x3f748c46	0.9552654
176	0x3f292fc5	0.66088516
177	0xbeccae8a	-0.39976913
178	0x3f33596b	0.70058316
179	0x3f2873a0	0.6580143
180	0x3cdd836e	0.02704021
181	0x3e725fe8	0.23669398
182	0x3ed991de	0.424941
183	0xbed93c9c	-0.42429054
184	0xbe86a02c	-0.26294076
185	0x3fb6fc83	1.429581
186	0xbf59eab1	-0.85123736
187	0xbf0bdf00	-0.54637146
188	0xbf5df473	-0.86701125
189	0xbf510043	-0.81641024
190	0x3f60126d	0.87528116
191	0xbf2ca69c	-0.67441726
192	0x3f6be6cf	0.9214906
193	0xbf37732d	-0.7166012
194	0xbf4daccd	-0.803418
195	0x3f07515a	0.5285851
196	0x3f5e2d05	0.86787444
197	0xbf3b5b29	-0.73185974
198	0xbf8e5211	-1.1118795
199	0xbef2f1dc	-0.4745015

fc2.bias f4 [25]
0	0xbd46f366	-0.048571967
1	0x3e1a7b9e	0.15086219
2	0x3e599a8f	0.21250366
3	0xbeee6fe0	-0.4656973
4	0xbeba087a	-0.36334592
5	0xbf000a4c	-0.5001571
6	0x3e1c020e	0.15235159
7	0xbf255102	-0.64576733
8	0xbee385ee	-0.44438118
9	0xbf3c62d4	-0.735883
10	0x3f37a4c7	0.71735805
11	0x3f2b99cf	0.6703157
12	0x3dbbdc89	0.09172923
13	0xbf3935b1	-0.7234755
14	0xbe72591e	-0.23666808
15	0x3e526b82	0.20548823
16	0xbf2a7d60	-0.6659756
17	0x3e33eaca	0.17570034
18	0xbebb8f43	-0.36632738
19	0x3eebf2d1	0.46083692
20	0xbde9ae98	-0.11410254
21	0xbf082fac	-0.5319774
22	0xbe65d85f	-0.2244582
23	0x3cc79365	0.024362275
24	0x3e16c592	0.14723805
